name:"runtime"
layer {
   name: "runtime"
   type: "Data"
   top: "data"
   top: "label"
   include {
      phase: TRAIN
   }

   data_param {
      source: "examples/runtime/db.train"
      batch_size: 32
      backend: LMDB
   }
}

layer {
   name: "runtime"
   type: "Data"
   top: "data"
   top: "label"
   include {
      phase: TEST
   }

   data_param {
      source: "examples/runtime/db.test"
      batch_size: 1
      backend: LMDB
   }
}

layer {
  name: "conv1"
  type: "Convolution"
  bottom: "data"
  top: "conv1"
  param {
    lr_mult: 1
  }
  param {
    lr_mult: 2
  }
  convolution_param {
    num_output: 100
    pad: 2
    kernel_size: 5
    stride: 1
    weight_filler {
      type: "gaussian"
      std: 0.0001
    }
    bias_filler {
      type: "constant"
    }
  }
}
layer {
  name: "pool1"
  type: "Pooling"
  bottom: "conv1"
  top: "pool1"
  pooling_param {
    pool: MAX
    kernel_size: 3
    stride: 2
  }
}

layer {
  name: "ip1"
  type: "InnerProduct"
  bottom: "pool1"
  top: "ip1"
  param {
    lr_mult: 1
    decay_mult: 250
  }
  param {
    lr_mult: 2
    decay_mult: 0
  }
  inner_product_param {
    num_output: 1
    weight_filler {
      type: "gaussian"
      std: 0.01
    }
    bias_filler {
      type: "constant"
    }
  }
}

layer {
   name: "relu1"
   type: "ReLU"
   bottom: "ip1"
   top: "ip1"
}

layer {
  name: "accuracy"
  type: "Accuracy"
  bottom: "ip1"
  bottom: "label"
  top: "accuracy"
  include {
    phase: TEST
  }
}
layer {
  name: "loss"
  type: "EuclideanLoss"
  bottom: "ip1"
  bottom: "label"
  top: "loss"
  include {
     phase: TRAIN
  }
}
